result/raw_train_mnist_model.pth (torch, 249991 bytes, 10 tensors)

c1.0.weight f4 [6, 1, 5, 5]
0	0xbd51a3aa	-0.051181473
1	0xbddd579d	-0.108077265
2	0xbe761560	-0.24031591
3	0xbe422b9f	-0.18961953
4	0xbeb9e994	-0.36311018
5	0x3e1cd0ae	0.1531398
6	0x3e029bcc	0.12754744
7	0xbe08e11e	-0.13367125
8	0xbe849ba7	-0.25900003
9	0x3dac2db0	0.08407152
10	0x3e75676b	0.23965232
11	0x3eefac10	0.4681096
12	0x3e96b838	0.29437423
13	0xbd2cfd21	-0.04223359
14	0x3e8748e9	0.26422814
15	0x3ea8d4fc	0.32974994
16	0x3e9ca92b	0.30597815
17	0x3de76965	0.11299399
18	0x3eafea02	0.3435822
19	0x3e82d086	0.25549716
20	0xbd819e8e	-0.0632907
21	0x3dcc540c	0.09976968
22	0xbd921d6b	-0.07134517
23	0x3e543425	0.20723017
24	0x3e35183c	0.17685026
25	0xbe0050a9	-0.1253077
26	0x3e39d97c	0.1814937
27	0x3ea5d0d3	0.32385883
28	0x3d96cdeb	0.073634945
29	0xbd90ced3	-0.070706986
30	0x3e3165de	0.17324015
31	0x3f1299ed	0.5726612
32	0x3ed061b2	0.40699536
33	0x3eaedff7	0.34155247
34	0x3e91a1e2	0.2844382
35	0x3ef18fa4	0.47179902
36	0x3f043753	0.5164692
37	0x3e8e3658	0.27775836
38	0x3ed33ded	0.41258183
39	0x3d2a679a	0.04160271
40	0x3e07e60e	0.13271353
41	0x3e90c226	0.28273124
42	0x3e5788a8	0.21048224
43	0xbe0ec039	-0.13940515
44	0xbacc7169	-0.0015597764
45	0xbd1d89fc	-0.03846167
46	0xbe2c4de9	-0.16826595
47	0xbe8f02b9	-0.27931765
48	0xbe2def95	-0.16985925
49	0xbe8db635	-0.27678075
50	0x3d874180	0.0660429
51	0xbd97ee85	-0.07418541
52	0x3e8850bb	0.26624092
53	0xbe163572	-0.14668825
54	0x3c2324e2	0.009957524
55	0x3d8e4fcc	0.06948814
56	0x3e993614	0.2992407
57	0x3dffc1f0	0.124881625
58	0x3e083c57	0.13304268
59	0x3e61396b	0.2199456
60	0x3e98dfad	0.2985815
61	0x3ed128db	0.40851483
62	0x3ef0cb4b	0.470301
63	0x3ea4577e	0.32098
64	0xbded9744	-0.11601117
65	0x3e860886	0.26178378
66	0x3ef60cb5	0.4805657
67	0x3eed0bcb	0.4629806
68	0x3ecc9470	0.39957
69	0x3e28da58	0.16489542
70	0xbe2cea06	-0.16886148
71	0x3c695f74	0.014243949
72	0x3e2c0d62	0.1680198
73	0x3d008878	0.031380147
74	0xbdb0004e	-0.08593808
75	0xbd749e81	-0.059721474
76	0xbdc5d9fc	-0.09660718
77	0xbee28964	-0.44245446
78	0xbd1d9a94	-0.038477495
79	0x3c3c3698	0.011487626
80	0x3e16ae8a	0.14715019
81	0xbe890b76	-0.26766557
82	0xbeacf853	-0.33783206
83	0xbe913a42	-0.2836476
84	0xbe4b43ad	-0.19850035
85	0x3d192095	0.03738459
86	0x3d96d8c9	0.07365567
87	0xbdb71d16	-0.089410946
88	0xbdb13938	-0.08653492
89	0x3e0078ed	0.1254613
90	0x3e7c48f7	0.24637209
91	0x3ef103fe	0.47073358
92	0x3ef72c61	0.48276046
93	0x3f02cb08	0.5109105
94	0x3e74d421	0.23909046
95	0x3eb116a7	0.34587595
96	0x3e214e0a	0.15752426
97	0x3ece81c5	0.4033338
98	0x3eddd8bf	0.43329427
99	0x3eb8e954	0.36115515
100	0x3e2ff3c6	0.17182836
101	0x3dd06bd0	0.101768136
102	0xbf001f2b	-0.5004756
103	0xbed63bfd	-0.41842642
104	0xbe94d609	-0.29069546
105	0x3d0f469a	0.03497944
106	0xbee1b25f	-0.440814
107	0xbf013b31	-0.50480944
108	0xbde90737	-0.11378329
109	0x3e8d171c	0.27556694
110	0xbe652fc7	-0.22381507
111	0xbecc42a4	-0.39894593
112	0xbe786f67	-0.24261247
113	0x3dfffad6	0.12499015
114	0x3e269b44	0.16270167
115	0xbee469ae	-0.44611877
116	0xbe64c511	-0.223408
117	0xbdb29434	-0.08719674
118	0x3e0c6f14	0.13714248
119	0x3ebe8296	0.37209004
120	0xbda883c8	-0.0822826
121	0xbe6d6ec3	-0.23186783
122	0x3e25a68e	0.16176817
123	0x3e50a33e	0.20374772
124	0x3f11246f	0.5669622
125	0x3c0561bb	0.008140977
126	0x3def6fdc	0.11691257
127	0x3e7da967	0.24771653
128	0x3ed3dd0e	0.4137959
129	0x3ec0de91	0.37669805
130	0x3dc0ba04	0.0941048
131	0x3e171b63	0.14756541
132	0x3efe8301	0.49709323
133	0x3eb97df0	0.36228895
134	0x3ea269ae	0.31721252
135	0xbcbe33e7	-0.023218108
136	0x3ea068a6	0.3132984
137	0x3e32dd3f	0.17467211
138	0x3ea28030	0.31738424
139	0x3e335b30	0.17515254
140	0xbdf768e5	-0.12080554
141	0xbe8777e3	-0.26458654
142	0xbea0e52b	-0.3142484
143	0xbe8cbed8	-0.27489352
144	0x3cb01871	0.02149603
145	0xbd81c586	-0.06336503
146	0xbe95d379	-0.29262903
147	0xbec8699e	-0.3914308
148	0x3ba3b319	0.0049957153
149	0xbe0a2954	-0.13492328

c1.0.bias f4 [6]
0	0xbc0c9790	-0.008581057
1	0xbb2e9860	-0.0026641116
2	0xbd1e738b	-0.03868441
3	0x3b8e7d25	0.0043484145
4	0x3e8bcad0	0.2730317
5	0x3c4fcc26	0.01268295

c3.0.weight f4 [16, 6, 5, 5]
0	0xbdb67e80	-0.08910847
1	0x3c43f742	0.011960806
2	0xbcfb7e5f	-0.030699907
3	0x3d072136	0.032990657
4	0xbcc0c496	-0.02353124
5	0xbcdb6353	-0.02678076
6	0x3da48922	0.080339685
7	0x3d87b1df	0.06625723
8	0x3df37341	0.11887217
9	0x3e29c79f	0.16580056
10	0xbce8c5e8	-0.028414682
11	0x3e08f641	0.13375188
12	0xbb31b897	-0.002711808
13	0xbccca613	-0.024981534
14	0x3cd38d37	0.025824172
15	0x3d929d27	0.07158881
16	0x3ceb759b	0.028742602
17	0xbe062184	-0.13098723
18	0xbe3ae42b	-0.18251102
19	0xbd98b51c	-0.07456419
20	0xbcb73fb9	-0.022369253
21	0xb9c3850f	-0.00037292435
22	0x3b490c5e	0.0030677537
23	0x3dd73a7f	0.10509204
24	0x3dac8f04	0.084257156
25	0xbe0c03c2	-0.13673308
26	0x3d440707	0.047858264
27	0xbe389a90	-0.18027711
28	0xbe86fca1	-0.26364616
29	0xbe85053c	-0.25980556
30	0xbe08c1ac	-0.1335513
31	0xbd74a689	-0.059729133
32	0xbda9c77c	-0.08290002
33	0xbc8fb9e6	-0.017544698
34	0x3dd4e2d5	0.10394827
35	0xbd629012	-0.055313177
36	0x3d69c271	0.0570702
37	0x3e4662d0	0.19373631
38	0x3e55799f	0.20847176
39	0x3dd1d3c1	0.10245467
40	0x3d86140a	0.06546791
41	0x3d78b987	0.060723808
42	0xbd281b1e	-0.041041486
43	0xbdf80e3c	-0.1211209
44	0xbde83685	-0.11338524
45	0x3d91fafe	0.07127951
46	0xbcd2d655	-0.025736967
47	0xbdd1eb73	-0.102499865
48	0xbe349d2d	-0.17638083
49	0x3d70047c	0.058598027
50	0x3d6b54a4	0.057453766
51	0xbc07bba3	-0.008284482
52	0xbd95bb55	-0.073111214
53	0xbd96dcbc	-0.073663205
54	0xbd9f2079	-0.077698655
55	0xbdcae7d4	-0.09907499
56	0xbcb048c1	-0.021519067
57	0x3d1a754b	0.037709516
58	0x3de7a591	0.11310876
59	0x3e15b4c9	0.14619745
60	0x3d8dfc15	0.069328465
61	0x3d2b5792	0.04183156
62	0xbc944622	-0.018099848
63	0x3bd36985	0.006451788
64	0xbce47398	-0.02788715
65	0x3e3c46d5	0.18386395
66	0x3c59f5d2	0.013303237
67	0xbdbaeb8c	-0.09126958
68	0xbe395d3c	-0.18101972
69	0xbde76ab9	-0.112996526
70	0xbca0e2e9	-0.01963945
71	0xbdaca103	-0.08429148
72	0xbdf803a3	-0.12110069
73	0xbd392838	-0.04520437
74	0x3cbc12d5	0.022958199
75	0x3d5f6aa7	0.05454507
76	0xbd009664	-0.031393424
77	0x3d81f1f4	0.06344977
78	0x3c6b4d3c	0.014361676
79	0x3e39c174	0.18140203
80	0xbde77ee9	-0.11303503
81	0xba45bf54	-0.0007543464
82	0x3e263c47	0.16233931
83	0x3e7255e4	0.23665577
84	0x3e03541d	0.12825055
85	0x3dffd4c8	0.12491757
86	0x3dd9829d	0.10620616
87	0xbcbf5bda	-0.023359228
88	0xbe68be7d	-0.22728916
89	0xbd5510f3	-0.052018117
90	0x3db1f788	0.08689791
91	0xbda2b67e	-0.07944964
92	0xbe1ce13a	-0.15320292
93	0xbd78a21f	-0.060701486
94	0x3e26eeea	0.16302076
95	0xbe23d017	-0.15997349
96	0xbe0e06bc	-0.13869756
97	0x3d516b5b	0.051127773
98	0x3e22c727	0.15896283
99	0x3cbe7723	0.023250168
100	0xbe9442ac	-0.28957117
101	0xbe6efed5	-0.23339398
102	0xbbb82341	-0.005619437
103	0xbd92f20b	-0.07175072
104	0xbe2d75b7	-0.16939436
105	0xbe4c7b8b	-0.19969003
106	0x3d730749	0.05933312
107	0x3e2746f7	0.16335665
108	0xbdf98ae8	-0.121846974
109	0xbe8a72e9	-0.27040794
110	0x3d943e69	0.07238466
111	0x3d2de8af	0.042458232
112	0xbe1afdf3	-0.15135936
113	0xbf11c8db	-0.56947106
114	0xbec2cefc	-0.38048542
115	0x3db9a6c7	0.090650134
116	0xbe83b34a	-0.25722724
117	0xbe53cbbb	-0.20683186
118	0x3de109fc	0.109882325
119	0x3e67f423	0.22651725
120	0xbe878422	-0.26467997
121	0xbe121825	-0.14267023
122	0x3e7f4d40	0.24931812
123	0x3e8770a7	0.26453134
124	0x3dd085d1	0.101817735
125	0xbdc4b520	-0.09604859
126	0xbd3f32a1	-0.046679143
127	0xbe11c48e	-0.14235136
128	0xbe6c87a9	-0.23098625
129	0xbe2ba497	-0.16762005
130	0xbbecc946	-0.007226142
131	0xbd742d1c	-0.059613332
132	0xbd4d1781	-0.050071243
133	0x3ca8a2b2	0.020585392
134	0x3dbc4f8a	0.09194858
135	0xbe0ca1b3	-0.13733558
136	0xbc6458c6	-0.013937181
137	0x3e370a53	0.17875032
138	0x3e591871	0.2120073
139	0x3e5b2922	0.2140241
140	0x3db23225	0.087009706
141	0x3e228abf	0.1587324
142	0x3e3ef828	0.18649352
143	0x3d94734d	0.072485544
144	0xbd9ac8bf	-0.075578205
145	0x3e182f98	0.14861906
146	0x3d4a2035	0.04934712
147	0xbe3f6bed	-0.18693514
148	0xbdd183f8	-0.10230249
149	0x3d37c1e1	0.04486263
150	0x3d7b2ea9	0.061323795
151	0xbd745711	-0.059653345
152	0xbd3992f9	-0.04530618
153	0xbd889e48	-0.06670815
154	0xbdc9771a	-0.0983717
155	0x3d85bb1b	0.06529828
156	0xbd159b7f	-0.036525246
157	0x3cad4279	0.02114986
158	0x3d2572f2	0.040392824
159	0x3ced866e	0.028994765
160	0x3cc76b74	0.02434323
161	0x3dcc20fb	0.09967228
162	0x3d5149cf	0.05109578
163	0x3ccc5dd2	0.02494708
164	0x3e34064a	0.17580524
165	0x3d84e6bb	0.06489321
166	0xbd565784	-0.052329555
167	0xbe2ea366	-0.17054519
168	0xbdbca972	-0.09212007
169	0x3b41953d	0.0029538416
170	0xbd63ca52	-0.05561287
171	0x3d54492c	0.051827595
172	0x3d665adc	0.056238994
173	0x3c121c83	0.008917931
174	0xbdd637e2	-0.104598776
175	0x3c277bb6	0.010222366
176	0x3d6b9eee	0.057524614
177	0xbd8a0f5a	-0.06741209
178	0xbdb4212b	-0.08795389
179	0xbddb603e	-0.10711716
180	0xbcbfda9d	-0.023419673
181	0xbdba7d22	-0.091058984
182	0xbd8c0c7d	-0.068383195
183	0xbdeaafc2	-0.114593044
184	0xbd6807a9	-0.05664793
185	0xbda07e34	-0.07836571
186	0x3dd28daf	0.1028093
187	0x3e0284c5	0.1274596
188	0x3b9255d5	0.0044657984
189	0x3d7641b5	0.060121257
190	0xbd7ca8b4	-0.061684325
191	0xbd151dfc	-0.03640555
192	0x3da48761	0.08033634
193	0x3bea2414	0.007145414
194	0x3d29831b	0.041384798
195	0xbd5ff1fa	-0.054674126
196	0xbdd3b86a	-0.103379086
197	0xbe5c0110	-0.2148478
198	0xbd509ea7	-0.050932553
199	0x3dac2f6d	0.08407483
200	0x3daf18bc	0.085496396
201	0x3db569f4	0.088580996
202	0xbdeedd1a	-0.116632655
203	0xbe02f08d	-0.12787075
204	0xbe058576	-0.13039193
205	0xbdbd8880	-0.09254551
206	0x3c10e3ba	0.008843357
207	0x3b413e3f	0.0029486564
208	0xbc8e1f69	-0.017348962
209	0x3ce45b67	0.027875615
210	0xbd3ef58b	-0.046620887
211	0xbc07691c	-0.008264806
212	0x3d78c81a	0.060737707
213	0x3e118fef	0.14215063
214	0x3e017157	0.12640892
215	0x3d7041e8	0.058656603
216	0x3d301cc6	0.04299619
217	0xbddd0d82	-0.10793592
218	0xbd9ab846	-0.075546786
219	0x3dba40fe	0.090944275
220	0xbd4094d4	-0.047016934
221	0xbda4215e	-0.08014177
222	0xbe1b44de	-0.1516299
223	0xbde57ba5	-0.11205224
224	0xbcab53c3	-0.020913964
225	0xbc1ab674	-0.009442914
226	0xbddea1f8	-0.10870737
227	0xbd6e156b	-0.058125895
228	0xbd63918a	-0.05555872
229	0xbcd1f81a	-0.025631
230	0x3da976b4	0.08274594
231	0x3df61622	0.1201594
232	0x3e5539fd	0.20822902
233	0x3da9699b	0.08272096
234	0x3dc2bad8	0.09508294
235	0x3d3db81f	0.04631817
236	0x3d57aaa0	0.052652955
237	0x3d89dd8b	0.06731709
238	0x3dd9513c	0.10611197
239	0x3e6c291d	0.23062558
240	0x3d6ebb90	0.058284342
241	0xbd87f636	-0.06638758
242	0xbe0466d1	-0.12929846
243	0xbc60c0a6	-0.013717806
244	0x3d6cc05b	0.057800632
245	0x3c2ffac0	0.010740936
246	0x3e06c0f9	0.1315955
247	0x3aa8f83a	0.001289136
248	0xbcbc3e29	-0.022978859
249	0x3d60e4ef	0.054905828
250	0x3da9b405	0.08286289
251	0xbdd0c9de	-0.10194753
252	0xbde4cf9a	-0.11172409
253	0xbd500417	-0.05078515
254	0x3b153d90	0.002277229
255	0xbce76f3d	-0.028251285

c3.0.bias f4 [16]
0	0x3d01203e	0.03152489
1	0x3d8689a7	0.06569224
2	0x3e1d5c18	0.15367162
3	0xbe20f4b9	-0.15718354
4	0x3c49f617	0.012326739
5	0xbd6c3d5d	-0.057675708
6	0xbd96289f	-0.073319666
7	0xbcc9875a	-0.024600673
8	0xbdd214ea	-0.10257895
9	0x3ce0a922	0.027424399
10	0x3e10281d	0.14077802
11	0x3b1276d8	0.0022348668
12	0x3c8f7cc6	0.017515551
13	0x3cb775cf	0.022395043
14	0x3dbae3ae	0.09125458
15	0x3d20f890	0.039299548

F5.0.weight f4 [120, 400]
0	0xbbdf76f6	-0.006819601
1	0xbd11a4db	-0.03555761
2	0xbd7e8875	-0.062141854
3	0xbd74ee51	-0.05979759
4	0xbd24620a	-0.04013256
5	0x3c0b196c	0.008489948
6	0x3c256fc3	0.010097447
7	0xbcab5954	-0.020916618
8	0xbcd56c32	-0.026052568
9	0xbd4185a3	-0.047246587
10	0xbd713b1d	-0.058894265
11	0xbd4718af	-0.048607524
12	0x3c9a49d9	0.018834041
13	0xbd8e6f29	-0.06954796
14	0xbd013988	-0.031549007
15	0xbc221e75	-0.009894957
16	0x3c3792a9	0.0112044
17	0xbcc7cf3c	-0.02439081
18	0xbd42087d	-0.047371376
19	0xbcc11053	-0.023567354
20	0xbd4a9417	-0.049457636
21	0xbce7f8e0	-0.028316915
22	0x3be83443	0.007086308
23	0xbd686f6b	-0.05674688
24	0xbcaa7386	-0.020807039
25	0x3c33e95b	0.010980929
26	0xbd128ac9	-0.035776887
27	0xbd4bdc0f	-0.04977041
28	0xbdb0d12b	-0.086336456
29	0xbd60072b	-0.054694336
30	0x3cba8464	0.022768207
31	0xbceade8a	-0.028670568
32	0xbd6424ed	-0.055699278
33	0xbd5b4f2c	-0.0535423
34	0xbd339c1d	-0.043850053
35	0xbcc46833	-0.023975467
36	0x3b02704b	0.0019903358
37	0xbb6ad432	-0.0035832045
38	0xbc7f28ac	-0.015573662
39	0xbbb3f2b1	-0.0054915776
40	0x3c129adb	0.008948053
41	0xbd302eaf	-0.04301327
42	0xbca53a28	-0.020169333
43	0xbcebf966	-0.028805446
44	0xbd104e98	-0.035231203
45	0x3ab9a613	0.0014163874
46	0x3c2ab5fd	0.010419366
47	0xbd299afa	-0.041407563
48	0xbd4b4028	-0.04962173
49	0x3d0e5a02	0.034753807
50	0x3d044237	0.03228971
51	0x3cdcdd0c	0.026960872
52	0x3d04cd69	0.032422457
53	0xba22f9a1	-0.0006217007
54	0xbda4c6c1	-0.08045722
55	0x3b3c35fb	0.0028718698
56	0xbcfcbeac	-0.030852638
57	0xbd208a22	-0.039194234
58	0xbd3544e8	-0.044255167
59	0x3be960dd	0.0071221427
60	0xbd127c65	-0.035763163
61	0x3d5e9bb0	0.054347694
62	0xbc9106ea	-0.017703492
63	0xbd60e526	-0.054906033
64	0xbcbda593	-0.023150241
65	0xbd6501ba	-0.05590985
66	0x3c88a865	0.01668186
67	0x3cd65d07	0.026167406
68	0xbbd6761d	-0.006544842
69	0xbd9ae01b	-0.07562276
70	0xbd31605d	-0.04330479
71	0xbd4818f7	-0.048851933
72	0xbb95479a	-0.0045556547
73	0x3ce3b5fe	0.027796742
74	0x3b8134be	0.003943055
75	0xbd565f13	-0.052336764
76	0xbd80f6c9	-0.062970705
77	0x3c1a321d	0.009411362
78	0xbbb76540	-0.0055967867
79	0xbd68ea7e	-0.056864254
80	0xbd3a6541	-0.04550672
81	0x3c86dfb9	0.016464101
82	0x3d48f94b	0.04906587
83	0xbcf21182	-0.029549364
84	0x3b86ac6f	0.004109911
85	0x3c8b687b	0.017017594
86	0xbd33b434	-0.043873027
87	0xbd7cd4a1	-0.061726216
88	0xbd97a527	-0.07404547
89	0xbd816afd	-0.063192345
90	0xbd8d17d4	-0.068893105
91	0xbd89ee59	-0.06734914
92	0xbd8cca52	-0.06874527
93	0xbd1e44fd	-0.03864001
94	0xbacd1e12	-0.001564922
95	0xbd2ea558	-0.042638153
96	0xbdd9857e	-0.10621165
97	0xbd433493	-0.04765756
98	0xbc9ce881	-0.019153835
99	0xbcd314b1	-0.025766702
100	0xbd84bf26	-0.06481771
101	0x3c05ff93	0.008178609
102	0x3d86fcee	0.06591211
103	0xbcecefd4	-0.028922953
104	0xbd2cffca	-0.042236127
105	0xbd31dfdf	-0.04342639
106	0xbd5bb11f	-0.053635713
107	0xbd3dd569	-0.046346102
108	0xbd033b6d	-0.032039095
109	0xbd8779b5	-0.06615011
110	0xbd3bdf4d	-0.045867253
111	0xbd489db3	-0.04897852
112	0xbda94f35	-0.08267061
113	0xbb3c4a70	-0.0028730892
114	0xbd59866a	-0.053106703
115	0xbd35ecd0	-0.044415295
116	0xbd9d0cef	-0.076684825
117	0xbb64e661	-0.0034927356
118	0xbcb731d4	-0.022362627
119	0x3c6e5875	0.014547457
120	0xbcb91c5a	-0.022596527
121	0x3c9ad907	0.018902315
122	0x3d134948	0.03595856
123	0x3cc997f7	0.024608595
124	0xbbd78a7a	-0.006577787
125	0x3b93a9ed	0.0045063407
126	0x3c85ca01	0.016331675
127	0xbca6ca90	-0.020360261
128	0x3bccddb1	0.0062520136
129	0xbcbf3983	-0.023342853
130	0xbd5f456d	-0.05450957
131	0xbc47dcdd	-0.012198654
132	0xbdace5d5	-0.084422745
133	0x3c88bfab	0.016692957
134	0x3cda0440	0.026613355
135	0xbba2e62c	-0.0049712863
136	0xbcd2df8b	-0.02574136
137	0xbd7ff475	-0.06248899
138	0xbd8e8a12	-0.069599286
139	0xbd6cb909	-0.05779365
140	0x3c932065	0.017959783
141	0xbcd44fe7	-0.025917007
142	0xbb5da3a6	-0.0033819466
143	0xbd8eb5c2	-0.06968261
144	0xbc56995c	-0.013098087
145	0xbd419bab	-0.047267597
146	0x3bebc8ad	0.0071955533
147	0xbd3fce71	-0.046827737
148	0xbcbe8323	-0.02325589
149	0x3d0d4be4	0.034496203
150	0x3cbe443e	0.0232259
151	0xbc5423b4	-0.012947965
152	0xbc85c6d0	-0.016330153
153	0xbd2880d5	-0.04113849
154	0x3d22b521	0.03972352
155	0x3cf1537a	0.02945875
156	0xbd3f9e43	-0.04678179
157	0x3d01f109	0.03172401
158	0x3d02d0ab	0.031937283
159	0xba81a8c0	-0.000989221
160	0x3c3e8e60	0.0116306245
161	0x3d1b67d9	0.037940834
162	0x3b5a3360	0.0033294782
163	0x39c32980	0.00037224218
164	0x3bf456c0	0.0074566305
165	0x3d3d02c7	0.046145227
166	0x3d0719bf	0.032983538
167	0xbbbd50c0	-0.0057774484
168	0x3b64e220	0.003492482
169	0x3c082a2c	0.008310836
170	0xbd07d5e0	-0.03316295
171	0x3ca8b752	0.020595226
172	0xbd417d57	-0.047238674
173	0xbd43322a	-0.047655262
174	0x3d0339f3	0.032037687
175	0xbc93b4a7	-0.018030478
176	0x3cc6e5d5	0.024279514
177	0x3cef3026	0.029197764
178	0xbd84fae3	-0.06493165
179	0x3acbabd6	0.0015538882
180	0x3c396c04	0.011317257
181	0x3c8ee548	0.017443314
182	0xbd65d271	-0.056108896
183	0x3d148de0	0.036268115
184	0xbd9ad58d	-0.07560263
185	0xbc67c028	-0.014144935
186	0xbda8f6c5	-0.082501926
187	0xbc93d083	-0.018043762
188	0xbda8af55	-0.08236567
189	0xbd25369e	-0.04033529
190	0xbd01ad72	-0.03165955
191	0x3ad5ce94	0.0016312175
192	0x3c59c5b2	0.013291763
193	0xbd1c95b3	-0.0382287
194	0xbd3039f9	-0.043024037
195	0xbd908487	-0.070565276
196	0xbd527494	-0.05138071
197	0xbce30b44	-0.027715333
198	0xbd7eaaaf	-0.062174495
199	0xbbe28930	-0.0069133267
200	0x3c768b71	0.015047894
201	0x3c87ac09	0.016561525
202	0xbc802252	-0.015641365
203	0xbd7e24b5	-0.062046725
204	0xbd99b30a	-0.07504852
205	0xbd0f7870	-0.035026968
206	0x3bc0c312	0.005882629
207	0xbcc9387b	-0.024563065
208	0xbd8a78b3	-0.06761303
209	0xbd754556	-0.059880577
210	0xbc888479	-0.01666473
211	0xbd116c52	-0.035503693
212	0x3c21ead1	0.009882645
213	0x3b3ddba2	0.0028970023
214	0x3cf74856	0.03018586
215	0xbb07ed82	-0.002074093
216	0xbcf40499	-0.029787349
217	0xbd1712d9	-0.03688321
218	0x3d21bf04	0.039488807
219	0x3c6f38fe	0.01460099
220	0xbd972b57	-0.07381313
221	0xbcb51481	-0.022104504
222	0xbdb373d2	-0.08762325
223	0xbd9a50a4	-0.07534912
224	0xbc5f8938	-0.013643555
225	0xbcad61b6	-0.021164756
226	0xbd5843d6	-0.05279907
227	0xbd84b409	-0.064796515
228	0xbae2e4a6	-0.0017310574
229	0xbda0b510	-0.07847035
230	0xbd1f9b7c	-0.03896664
231	0x3c54b6d7	0.012983046
232	0xbd1f83fc	-0.03894423
233	0xbd14b3d9	-0.03630433
234	0xbd32bed3	-0.043639015
235	0xbd1b5e5c	-0.037931785
236	0xbcde45fe	-0.027132984
237	0x3cedf6bc	0.029048316
238	0xbd417a18	-0.04723558
239	0xbd264ede	-0.040602557
240	0xbd2fdeb3	-0.042936992
241	0xbd858cdc	-0.065210074
242	0xbda2f572	-0.07956971
243	0xba46ddf2	-0.0007586173
244	0xbbe0f28d	-0.006864852
245	0xbd80c013	-0.06286635
246	0xbd5c2fef	-0.05375665
247	0xbd30dc97	-0.04317912
248	0xbcb1144f	-0.02161613
249	0xbd4af416	-0.049549185
250	0xbd4ebeb6	-0.050474845
251	0xbcebae96	-0.028769772
252	0x3c07f6ba	0.00829857
253	0x3cc22baf	0.02370247
254	0xbcb6e8d5	-0.02232782
255	0x3d530851	0.051521603

F5.0.bias f4 [120]
0	0x3c3770ba	0.01119631
1	0xbcda120e	-0.026619937
2	0xbd781fae	-0.060577087
3	0x3d5dffd5	0.05419906
4	0x3b3eb44c	0.0029099165
5	0xbd55334a	-0.052050866
6	0xbd62ca69	-0.055368815
7	0xbdb1ca2a	-0.08681138
8	0xbdb4c7c8	-0.08827168
9	0x3deec2ad	0.11658225
10	0x3d6301aa	0.05542151
11	0xbc0b03a8	-0.008484758
12	0x3d5b86fa	0.05359552
13	0x3cdb4b89	0.026769416
14	0x3e14518a	0.1448423
15	0x3ad54a03	0.0016272668
16	0xbd36f686	-0.044668697
17	0x3cb76a67	0.022389604
18	0xbc3e5a6d	-0.011618239
19	0xbd0d67c6	-0.034522794
20	0x3d9bbd45	0.0760446
21	0x3da0b840	0.07847643
22	0x3daba95b	0.08381911
23	0x3d26cf8d	0.04072528
24	0xbce0ce5c	-0.02744215
25	0xbc461c27	-0.012091673
26	0xbbf27287	-0.0073989066
27	0x3d6feb70	0.05857414
28	0xbb93d54d	-0.0045115114
29	0xbd308b27	-0.043101456
30	0xbd7639cb	-0.06011371
31	0x3cf8fdb7	0.030394418
32	0xbd984663	-0.074353
33	0x3ceb5d05	0.028730879
34	0xbd497813	-0.049186777
35	0xbbe26a4b	-0.0069096438
36	0x3d25fe31	0.04052562
37	0x3c19bd07	0.009383447
38	0xbd4ea7d5	-0.050453026
39	0xbd45a0e5	-0.048249144
40	0x3c9dfd67	0.01928587
41	0xbcf34ae8	-0.029698804
42	0x3dee3f94	0.1163322
43	0xbd1e88fe	-0.038704865
44	0xbb618413	-0.0034410998
45	0x3d52861b	0.051397424
46	0xbd992565	-0.074778356
47	0x3cc50b40	0.024053216
48	0x3c7cef18	0.015437864
49	0x3d42a249	0.04751805
50	0x3babbacb	0.0052407733
51	0x39e92ec3	0.00044476063
52	0xbd80a33c	-0.062811345
53	0xbdb889a8	-0.09010631
54	0x3d5306f2	0.051520295
55	0x3dfc1c18	0.12310046
56	0x3bead4a1	0.0071664606
57	0xbb09107e	-0.002091437
58	0x3c63428f	0.013870849
59	0x3c7e0b3e	0.01550561
60	0x3c919efd	0.017776007
61	0x3ca65936	0.020306211
62	0xbcaba371	-0.020951958
63	0x3b93fdea	0.004516353
64	0xbcba4b96	-0.02274112
65	0x3db34179	0.08752722
66	0xbd28e499	-0.041233633
67	0xbb3a3030	-0.002841007
68	0x3b9d31f5	0.004797215
69	0xbc933984	-0.017971762
70	0xbd766d7b	-0.060163002
71	0x3d0eef10	0.034895957
72	0x3d5e2baf	0.05424088
73	0x3b889fb4	0.0041694287
74	0xbd723175	-0.059129197
75	0x3d6f937c	0.05849026
76	0xba8dc432	-0.0010815917
77	0xbced3117	-0.028954072
78	0xbd08b38a	-0.033374347
79	0x3d64947f	0.05580568
80	0x3b9a62fb	0.0047115064
81	0x3ca22746	0.019794118
82	0x3d8e4a77	0.06947797
83	0x3d9ed8fd	0.07756231
84	0xbcdb8a89	-0.026799457
85	0x3ca50ad3	0.020146763
86	0x3d6030a6	0.054733895
87	0x3b1b127c	0.002366214
88	0x3d60e0ac	0.054901764
89	0xbd2faa4c	-0.042887017
90	0x3c39c368	0.011338092
91	0xbd916034	-0.070984274
92	0xbcb8a1c7	-0.022538079
93	0x3e10772a	0.14107957
94	0xbcbfacb1	-0.023397775
95	0xbd8e410b	-0.06946
96	0x3dd57022	0.10421778
97	0x3d5a8994	0.05335386
98	0x3d732ef2	0.059370942
99	0xbd870346	-0.06592421
100	0xbd19994a	-0.037499703
101	0xbc723427	-0.014782942
102	0xbc64c6f2	-0.013963448
103	0xbcab7efc	-0.020934574
104	0x3ce42d95	0.027853766
105	0x3c7c4590	0.015397444
106	0xbd429813	-0.04750831
107	0x3d05d042	0.032669313
108	0xbbe7822b	-0.007065078
109	0xbd021d0f	-0.031765994
110	0x3df0b4e0	0.11753249
111	0xbd42c3a7	-0.04754987
112	0x3c47538c	0.012165915
113	0x3e1e9dba	0.15489855
114	0xbd30d1ac	-0.04316871
115	0x3bae96bf	0.005328029
116	0xbc78f559	-0.015195214
117	0x3c953fd5	0.018218914
118	0xbd7d51d0	-0.0618456
119	0xbd35f7ea	-0.044425882

F6.0.weight f4 [84, 120]
0	0xbc4ab637	-0.012372545
1	0xbd2726b6	-0.040808402
2	0xbd55ebad	-0.05222671
3	0xbd9a5d0c	-0.075372785
4	0x3c8a1d04	0.016859539
5	0x3d52c27b	0.051455002
6	0x3d15bf2c	0.03655927
7	0x3d333d80	0.043759823
8	0x3d307542	0.043080576
9	0xbcfd04e9	-0.03088613
10	0xbc936084	-0.017990358
11	0x3d23e683	0.040014755
12	0x3de31afd	0.11089132
13	0x3d9f1194	0.07767025
14	0x3e0d167c	0.13778108
15	0xbd277ef6	-0.040892564
16	0xbe067a42	-0.13132575
17	0x3d60e20c	0.054903075
18	0x3a97e699	0.0011589109
19	0xbc6ca165	-0.014442776
20	0xbdb30cfc	-0.08742711
21	0xbd24c168	-0.04022351
22	0xbe360cd0	-0.17778325
23	0x3ca447a5	0.020053694
24	0xbd63654a	-0.05551652
25	0x3ddf84f0	0.10914028
26	0x3d301f2c	0.042998478
27	0x3da6bafb	0.081411324
28	0xbded9b73	-0.11601915
29	0x3c5a82d2	0.013336854
30	0xbda1cdfb	-0.07900616
31	0xbc174407	-0.009232528
32	0xbd12b238	-0.035814494
33	0xbdd9efe6	-0.1064146
34	0xbbd76203	-0.006572963
35	0x3de22270	0.11041725
36	0x3cd27116	0.02568869
37	0x3e1cd55b	0.15315764
38	0x3d1b743f	0.037952658
39	0x3cf294dd	0.029612
40	0xbd704c35	-0.058666427
41	0x3c45d900	0.012075663
42	0x3caa77bf	0.020809053
43	0x3db8a53c	0.09015891
44	0xbdd2ce39	-0.1029324
45	0x3c6d6cd2	0.014491277
46	0x3d5d994d	0.054101277
47	0x3df2d895	0.11857716
48	0xbd1839c1	-0.037164453
49	0x3de88eab	0.11355337
50	0x3a744614	0.0009318304
51	0xbcbf0bc8	-0.023321047
52	0x3e70265d	0.23452134
53	0x3ca4fe3d	0.020140762
54	0xbd5a4c38	-0.053295344
55	0xbe4d6983	-0.20059781
56	0xbcfa18e0	-0.03052944
57	0xbdc87e22	-0.09789683
58	0xbd6815bb	-0.05666135
59	0x3d00c801	0.03144074
60	0x3d4ea853	0.050453495
61	0xbc60e2e4	-0.01372597
62	0x3d7a649d	0.06113111
63	0xbc8f007c	-0.017456286
64	0xbcb9f507	-0.022699846
65	0x3b7e02ec	0.0038759066
66	0xbd9cbd28	-0.07653266
67	0x3d1ea732	0.03873367
68	0xbca31e75	-0.019911984
69	0xbe0797dd	-0.13241525
70	0xbd115784	-0.035483852
71	0x3d81f690	0.06345856
72	0x3d98ca4b	0.07460459
73	0x3dcbca9e	0.099507555
74	0xbe6ab6a7	-0.22921239
75	0x3e1076f5	0.14107879
76	0x3cd493a4	0.025949307
77	0x3c38d6e8	0.011281706
78	0x3b97747c	0.0046220403
79	0xbdd39092	-0.10330309
80	0x3cefcae0	0.029271543
81	0x3ca08b27	0.019597603
82	0xbd354de1	-0.044263724
83	0xbd2f60d7	-0.042816963
84	0xbe210dd1	-0.15727927
85	0x3d91c403	0.071174644
86	0x3d805137	0.062654905
87	0x3dbc4370	0.0919255
88	0xbc7526ca	-0.014962861
89	0xbd90a1e6	-0.0706213
90	0xbdf76838	-0.12080425
91	0xbd9e448b	-0.07727917
92	0x3d8faa9d	0.07014964
93	0xbdef2ec5	-0.116788425
94	0x3dcd236c	0.10016522
95	0xbd9378a7	-0.07200747
96	0x3d625951	0.05526096
97	0x3cab13d0	0.02088347
98	0x3e11ba22	0.1423116
99	0x3d6c7d19	0.05773649
100	0xbc181888	-0.009283192
101	0xbd998b6b	-0.07497295
102	0xbdad9c78	-0.0847711
103	0x3d401e6e	0.04690402
104	0xbd627b43	-0.055293333
105	0x3d4d0572	0.05005402
106	0x3d48b6a8	0.04900232
107	0x3e00b228	0.12567961
108	0x3dcb6c56	0.09932773
109	0xbdaad571	-0.08341492
110	0x3e0ab17e	0.1354427
111	0xbb2189ee	-0.0024648863
112	0xbe287ce1	-0.16453888
113	0x3d4e001b	0.05029307
114	0xbda4de1f	-0.08050179
115	0xbc3d4093	-0.01155104
116	0x3e12a264	0.1431976
117	0x3d1baff9	0.038009617
118	0xbdb07610	-0.08616269
119	0xbd2efa68	-0.042719275
120	0x3cb1b77a	0.021693934
121	0x3a8bac0c	0.0010656132
122	0xbc151deb	-0.009101371
123	0xbdef58f0	-0.11686885
124	0xbd90ca39	-0.07069821
125	0xbd0617b6	-0.032737456
126	0x3ac127fd	0.0014736649
127	0xbdb7b9e1	-0.089710005
128	0x3d2e69d6	0.0425814
129	0xbd142705	-0.036170024
130	0x3d6de920	0.058083653
131	0x3d6502bf	0.055910822
132	0x3dc7dbad	0.09758697
133	0xbc94898e	-0.018131997
134	0xbe132223	-0.14368491
135	0x3dcaa695	0.09895054
136	0xbe007a50	-0.12546659
137	0x3dab7de1	0.08373619
138	0x3cea813c	0.028626077
139	0xbe39af62	-0.1813331
140	0x3c954776	0.018222552
141	0xbe229163	-0.15875773
142	0x3e4b00bc	0.19824499
143	0x3db3f041	0.08786059
144	0x3c9e5c3c	0.01933109
145	0xbdd5666a	-0.104199246
146	0x3ded2477	0.11579221
147	0xbd5c4aca	-0.053782262
148	0x3cf990bf	0.030464528
149	0x3c85062b	0.016238293
150	0xbd44e039	-0.048065398
151	0xbcd297a9	-0.025707083
152	0x3d3158ad	0.04329746
153	0xbe09214f	-0.13391612
154	0xbcef1485	-0.02918459
155	0x3db17e32	0.08666648
156	0x3d952f5f	0.07284426
157	0x3d8e1ae9	0.069387265
158	0x3dab97b4	0.083785444
159	0x3926847d	0.0001588035
160	0x3e157089	0.1459371
161	0x3dad15ff	0.08451461
162	0x3d8c5a5c	0.06853172
163	0x3c18944f	0.009312703
164	0x3e125ed5	0.14293988
165	0x3e13c18b	0.144293
166	0x3dd3aabc	0.103352994
167	0x3d154113	0.036439013
168	0x3d58ae1b	0.052900415
169	0x3d7f14e4	0.062275782
170	0xbdcc6e20	-0.09981942
171	0x3c92be98	0.017913148
172	0xbde5ccd5	-0.11220709
173	0x3c914977	0.017735226
174	0xbe1fb275	-0.1559542
175	0x3d0c2090	0.03421074
176	0x3d36a83a	0.044594027
177	0xbe0aab28	-0.13541853
178	0x3e35a9dd	0.17740579
179	0x3b3e9e54	0.002908607
180	0xbd68da06	-0.05684855
181	0x3e529aed	0.20566912
182	0xbc682536	-0.014169028
183	0x3e155c3e	0.14585969
184	0xbe70c372	-0.23512056
185	0xbc7f60b7	-0.015587023
186	0x3dca9fce	0.098937616
187	0x3c8ef98c	0.017452978
188	0xbcb8d78d	-0.02256372
189	0xbe2730b6	-0.16327175
190	0xbd7a100e	-0.061050467
191	0x3d28fa00	0.041254044
192	0x3d99db65	0.07512549
193	0xbc110691	-0.008851663
194	0xb9bfe369	-0.00036599793
195	0x3e1bcbb8	0.15214431
196	0x3d891f89	0.06695468
197	0xbd15e484	-0.036594883
198	0xbe12c353	-0.14332323
199	0xbd4f5a18	-0.05062303
200	0xbd881ec8	-0.06646496
201	0xbd9a78ad	-0.07542548
202	0x3d1ab99e	0.037774675
203	0x3d97462e	0.073864326
204	0x3e6ce9fc	0.23136133
205	0x3cef94bb	0.029245725
206	0x3e11d913	0.14242963
207	0xbd3949d7	-0.045236435
208	0x3d88336e	0.066504344
209	0x3cc02a86	0.023457777
210	0x3e53619d	0.20642705
211	0x3d4312b4	0.04762526
212	0x3de351c5	0.11099581
213	0x3b99b67a	0.0046909424
214	0x3c98ff09	0.018676298
215	0x3aee85c3	0.0018197823
216	0xbc89e00e	-0.01683047
217	0x3e1118a1	0.14169551
218	0xbc3c618d	-0.011497867
219	0xbd771570	-0.06032318
220	0xbd1e29bc	-0.03861402
221	0x3d79b0fa	0.060959794
222	0xbd0b6778	-0.034034222
223	0x3dbb78c4	0.091538936
224	0x3d2cfa3e	0.042230837
225	0xbd9af31f	-0.07565903
226	0x3d755746	0.059897684
227	0xbd0d4e4b	-0.034498494
228	0x3d82d72c	0.06388697
229	0x3d18621c	0.03720294
230	0xbda54901	-0.08070565
231	0x3afe537c	0.0019403542
232	0x3c367ba0	0.011137873
233	0x3e105c13	0.14097624
234	0xbd2f5ef3	-0.04281516
235	0x3d6b0f19	0.057387445
236	0x3cb44f7d	0.02201056
237	0xbde00ec6	-0.10940318
238	0x3d0169d9	0.031595085
239	0xbd8e5959	-0.069506355
240	0x3ce8614e	0.028366711
241	0xbd8a8143	-0.06762936
242	0xbc41d596	-0.011830708
243	0x3e0172e2	0.1264148
244	0x3d608574	0.05481477
245	0xbcaf0564	-0.021364875
246	0x3dca1724	0.09867695
247	0x3da0e8ca	0.07856901
248	0xbdbbbdab	-0.09167036
249	0xbdd7d31a	-0.10538311
250	0xbd2ca436	-0.04214879
251	0xbd9e508c	-0.07730207
252	0x3bc6c16f	0.0060655396
253	0xbe0bdb90	-0.13657975
254	0x3dafefe9	0.08590681
255	0x3dbb0714	0.091322094

F6.0.bias f4 [84]
0	0x3de316e4	0.110883504
1	0xbd63362f	-0.055471595
2	0xbd74a405	-0.059726734
3	0x3e218395	0.15772851
4	0x3d4999bb	0.049218874
5	0xbd364bf4	-0.04450603
6	0x3d52df8e	0.05148273
7	0xbca8b010	-0.020591766
8	0xbd67f8c8	-0.05663374
9	0x3c1b578d	0.009481323
10	0xbde3073d	-0.11085365
11	0x3c71350c	0.01472212
12	0x3cfdb805	0.030971536
13	0xbd4851f1	-0.04890627
14	0x3c44435e	0.011978952
15	0xbd67d673	-0.056601
16	0xbdb9f2ec	-0.09079537
17	0x3d469e90	0.04849106
18	0x3cf2ba87	0.029629959
19	0x3e0ac54d	0.13551827
20	0x3dec248b	0.115304075
21	0xbd9aa55a	-0.075510696
22	0xbddf9097	-0.1091625
23	0x3e1bba0b	0.15207689
24	0x3d163b8f	0.036677893
25	0x3bb9b43f	0.005667239
26	0x3d11aa08	0.035562545
27	0x3dcfd157	0.1014735
28	0x3c29065d	0.0103164585
29	0x3d782f53	0.060592007
30	0xbdf5685d	-0.11982796
31	0x3e0b6701	0.13613512
32	0x3e1bea2a	0.15226045
33	0x3dd1c604	0.102428466
34	0xbc476286	-0.012169486
35	0x3d814a08	0.063129485
36	0x3d79e894	0.06101282
37	0x3dbec4ce	0.09314881
38	0xbd614bd5	-0.05500396
39	0x3cddbddf	0.027068077
40	0xbde224d8	-0.11042184
41	0x3ccd39a1	0.025051894
42	0x3d09843d	0.033573378
43	0xbd306a9d	-0.043070424
44	0xbd99717f	-0.07492351
45	0xbd8f2e75	-0.06991283
46	0xbc97383b	-0.01845943
47	0xbaf56365	-0.0018721638
48	0xbd76f639	-0.06029341
49	0xbbfc204e	-0.0076942807
50	0x3b89cc3f	0.0042052562
51	0xbe0d3e13	-0.1379321
52	0x3dd6c707	0.1048718
53	0x3df10c39	0.117699094
54	0x3e26cd31	0.16289212
55	0xbca767ac	-0.020435177
56	0x3c2141f6	0.0098423865
57	0x3ce8fe89	0.028441684
58	0x3c962aef	0.01833102
59	0x3d1a6d25	0.037701745
60	0xbce63e03	-0.028105741
61	0x3d9623a9	0.073310204
62	0xbd6c2027	-0.05764785
63	0x3dd53ad1	0.10411609
64	0xbc49c192	-0.012314217
65	0x3e0d5083	0.13800244
66	0x3c89774b	0.016780516
67	0xbdddc730	-0.108290076
68	0xbdb5c245	-0.088749446
69	0x3e114c6b	0.14189307
70	0x3d3af4ab	0.04564349
71	0xbdb80305	-0.08984951
72	0x3e007f9a	0.12548676
73	0x3d6e8f0f	0.0582419
74	0xbe159cd8	-0.14610612
75	0x3de0d089	0.10977275
76	0xbcb4cea3	-0.022071188
77	0xbcd07cf1	-0.025450202
78	0xbd728b46	-0.059214853
79	0x3d1c8338	0.038211077
80	0xbd98d94d	-0.07463322
81	0xbdab741c	-0.083717555
82	0x3ccdaa39	0.025105583
83	0x3df89695	0.12138096

F7.0.weight f4 [10, 84]
0	0x3e026f1e	0.127377
1	0xbe317ab9	-0.17331971
2	0x3e06fb66	0.13181838
3	0x3e364150	0.17798352
4	0x3b15ff76	0.0022887862
5	0x3d23ad11	0.03995997
6	0x3d58c2ff	0.052920338
7	0x3e326cd8	0.17424333
8	0x3db22ace	0.086995706
9	0xbb890d0d	-0.004182464
10	0x3d93df5e	0.07220338
11	0xbddf5ad6	-0.109059975
12	0xbd062ab4	-0.03275557
13	0xbe69ae52	-0.22820404
14	0xbe2c24e2	-0.16810945
15	0xbe8def27	-0.2772152
16	0xbe2843f2	-0.16432169
17	0xbe63a35a	-0.22230282
18	0xbc9b3f30	-0.018951029
19	0xbe1dfcde	-0.15428492
20	0xbc9b09d2	-0.018925581
21	0xbe015538	-0.12630165
22	0xbd4df898	-0.050285906
23	0xbe7935ad	-0.24336882
24	0xbc954a03	-0.018223768
25	0x3bbc39c6	0.005744192
26	0xbe585d73	-0.21129398
27	0xbd876121	-0.06610323
28	0x3df66337	0.120306425
29	0xbe018eff	-0.12652205
30	0xbde13cd0	-0.10997927
31	0xbcd16b40	-0.025563836
32	0x3d2f71f8	0.0428333
33	0xbcc3e540	-0.023913026
34	0xbe065ba8	-0.13120902
35	0x3dca60d4	0.0988175
36	0xbe347599	-0.17622985
37	0x3e0b95de	0.13631389
38	0xbd88f762	-0.066878095
39	0xbe7ad4b9	-0.2449521
40	0xbd0c2963	-0.034219157
41	0xbd8a233d	-0.067450024
42	0x3dcd75d3	0.10032239
43	0x3e1e50cc	0.15460509
44	0xbd3a96cb	-0.045553964
45	0xbd5b47fb	-0.053535443
46	0xbde62df7	-0.11239236
47	0xbd0c7d3c	-0.03429912
48	0x3dbb9b82	0.0916052
49	0x3dc0df65	0.09417609
50	0xbe44778c	-0.19186229
51	0x3d09e39e	0.03366434
52	0x3e1c8381	0.1528454
53	0x3db8912e	0.09012066
54	0x3e26968e	0.1626837
55	0x3b1cede4	0.0023945505
56	0x3b76a97b	0.003763764
57	0xbe16998d	-0.14707012
58	0xbe18ffb0	-0.14941287
59	0xbe2edb3a	-0.17075816
60	0x3d906b50	0.07051718
61	0xbde6e303	-0.11273768
62	0x3e0f0e5d	0.13970323
63	0xbdec9377	-0.11551564
64	0xbdcf2e0f	-0.10116207
65	0x3d69b26d	0.057054926
66	0x3d03521b	0.032060724
67	0x3d6e8c10	0.058239043
68	0x3d5121b8	0.051057547
69	0xbb93b8f0	-0.0045081303
70	0x3e056d8d	0.13030072
71	0xbd0d8ee4	-0.0345601
72	0x3d8696e2	0.06571747
73	0xbdc22287	-0.09479242
74	0xbc1a24f7	-0.009408227
75	0x3d513212	0.05107314
76	0x3e493311	0.19648387
77	0xbddab311	-0.106786855
78	0xbea9bee6	-0.33153456
79	0xbe69c1de	-0.2282786
80	0x3d4e3756	0.05034574
81	0xbc899605	-0.016795168
82	0x3d927555	0.071512856
83	0x3d75f246	0.060045503
84	0xbe522b48	-0.20524323
85	0xbd9cef25	-0.07662801
86	0x3e2e17cb	0.17001264
87	0xbe7f92b3	-0.24958305
88	0x3e2e8f29	0.17046799
89	0xbd0e483d	-0.03473686
90	0x3d8bab20	0.06819749
91	0x3e08a02e	0.13342354
92	0x3dc594e4	0.09647539
93	0xbd7b79a9	-0.06139532
94	0x3d84f3e8	0.06491834
95	0x3e1a060b	0.15041368
96	0xbd23cfc6	-0.03999307
97	0x3dd622cd	0.104558565
98	0x3e18e938	0.14932716
99	0xbe1e22d4	-0.15442973
100	0x3d141f1b	0.036162477
101	0xbe133359	-0.14375056
102	0xbcb97476	-0.02263854
103	0x3d4e55a1	0.05037463
104	0xbe7c75c0	-0.24654293
105	0x3d9f1104	0.07766917
106	0x3db5c4c9	0.088754244
107	0xbdcefd8a	-0.101069525
108	0xbe955afe	-0.29170984
109	0x3db7bf79	0.089720674
110	0x3c65e6b4	0.014032055
111	0x3c97ddfe	0.018538471
112	0xbe0f381e	-0.13986251
113	0x3e508985	0.2036496
114	0xbdf4f452	-0.11960663
115	0x3be42213	0.00696207
116	0x3df1bac5	0.118032016
117	0x3e2cb18d	0.16864605
118	0x3d8e89e5	0.06959895
119	0xbe2c9f29	-0.1685759
120	0x3dbebaf4	0.09313002
121	0xbcba5220	-0.022744238
122	0x3d341285	0.043962974
123	0x3e0c6243	0.13709359
124	0x3c166ebc	0.009181675
125	0x3dfe7376	0.12424366
126	0xbd4edd8e	-0.05050426
127	0x3e222f46	0.15838346
128	0xbcbd85d8	-0.02313511
129	0x3b58bb02	0.003307045
130	0xbe39728f	-0.18110107
131	0xbd3d55c0	-0.046224356
132	0xbd941fd7	-0.072326355
133	0x3d5dd8d8	0.054161876
134	0x3de0b3cf	0.10971796
135	0x3d0dc7b7	0.03461429
136	0xbdd0e921	-0.10200716
137	0x3cc27466	0.023737144
138	0x3dc97bd1	0.09838069
139	0x3ceca49b	0.028887084
140	0xbd8d55bc	-0.06901118
141	0xbd9dff34	-0.07714692
142	0xbe6897a6	-0.227141
143	0x3e122c90	0.14274812
144	0xbdc0ccd1	-0.09414066
145	0xbe830723	-0.25591382
146	0x3d3a1753	0.0454324
147	0xbc46c056	-0.012130817
148	0x3caabee2	0.020842973
149	0xbc436984	-0.011927012
150	0x3d84307f	0.064545624
151	0x3c8ada48	0.016949788
152	0x3d09fdf8	0.03368947
153	0x3dcdacee	0.10042749
154	0x3e5e858a	0.21730629
155	0x3e0b2083	0.13586621
156	0xbe62337d	-0.22089954
157	0xbd0f249a	-0.034947015
158	0xbd0f67e1	-0.035011176
159	0xbb079f47	-0.0020694302
160	0xbda68202	-0.08130266
161	0xbdfad0f1	-0.12246884
162	0x3db1c996	0.086810276
163	0x3e414e97	0.18877636
164	0xbda22dfb	-0.07918926
165	0x3cea4c50	0.028600842
166	0x3dbe1011	0.09280408
167	0xbe2599c4	-0.16171938
168	0xbd9ecf08	-0.07754332
169	0xbd878083	-0.066163085
170	0xbe1317b1	-0.14364506
171	0x3dff2bfe	0.12459563
172	0xbd07b6bb	-0.03313325
173	0x3cad7f25	0.021178791
174	0xbdb11438	-0.086464345
175	0xbc602ae2	-0.013682099
176	0x3dcc27b2	0.09968509
177	0x3e0ff6ed	0.14059038
178	0xbcd8cd29	-0.026465015
179	0x3e03b6fd	0.12862773
180	0xbcadc2be	-0.021211024
181	0xbd7f108c	-0.06227164
182	0x3d4f2671	0.05057377
183	0xbe2ec2cf	-0.17066501
184	0xbd4e5919	-0.05037794
185	0x3e3d00b6	0.18457302
186	0x3e1c70c2	0.15277389
187	0x3db5ebf0	0.08882892
188	0xbd7ed417	-0.062213983
189	0xbe1e8cd8	-0.15483415
190	0xbdf61127	-0.1201499
191	0xbe36bacd	-0.17844696
192	0x3d577b3d	0.052607764
193	0xbe512897	-0.2042564
194	0xbd0b4e9e	-0.034010522
195	0xbd2cf95a	-0.042229988
196	0x3e13e6f3	0.14443569
197	0x3cc21df7	0.023695929
198	0xbcb71619	-0.022349404
199	0xbe774760	-0.24148321
200	0xbdbeadc0	-0.09310484
201	0xbd872410	-0.06598675
202	0xbcce0af7	-0.025151713
203	0x3d55c367	0.052188303
204	0xbe6dac08	-0.23210156
205	0x3e3810cf	0.17975162
206	0xbc903add	-0.017606193
207	0x3dd4afa9	0.10385067
208	0x3cc85c62	0.024458114
209	0xbe9861ef	-0.29762217
210	0x3ddba684	0.1072512
211	0x3d744aa7	0.059641507
212	0xbc809e46	-0.01570047
213	0x3d4f8b9e	0.05067026
214	0x3db4c498	0.0882656
215	0xbdb57104	-0.08859447
216	0x3d80cd68	0.06289178
217	0xbc85fc85	-0.016355762
218	0x3d9cd91c	0.07658598
219	0xbe0a2b4b	-0.13493077
220	0xbdb5c293	-0.08875003
221	0x3e2d57ab	0.16927974
222	0xbd26a9ac	-0.040689155
223	0xbd78ba8d	-0.060724784
224	0x3d264750	0.040595353
225	0xbe03ff61	-0.12890388
226	0x3d943fca	0.07238729
227	0x3dd38e1f	0.10329842
228	0xbc1949ff	-0.009356021
229	0xbdb40d67	-0.08791619
230	0xbd8f3910	-0.06993306
231	0x3db268c3	0.08711388
232	0xbe40d25a	-0.18830243
233	0x3dc1e8ea	0.09468253
234	0xbcd089c9	-0.025456326
235	0x3ced6609	0.028979318
236	0xbd567770	-0.05236
237	0xbd213ed0	-0.039366543
238	0x3db4bae8	0.08824712
239	0xbded00a6	-0.11572389
240	0x3e0780b4	0.1323269
241	0x3d47983b	0.048729163
242	0xbd012568	-0.031529814
243	0xbe51807e	-0.20459172
244	0xbe39dff8	-0.18151844
245	0xbe2869aa	-0.16446558
246	0x3de8c04e	0.11364804
247	0x3da52493	0.080636166
248	0x3c2064ea	0.009789685
249	0x3c325db2	0.0108865965
250	0x3e28cecd	0.16485138
251	0xbdd3382f	-0.103134505
252	0x3da13a44	0.078724414
253	0x3dfd9bba	0.12383218
254	0xbe1f867c	-0.15578645
255	0xbe35e0fb	-0.17761604

F7.0.bias f4 [10]
0	0xbcff0630	-0.03113088
1	0xbd64493c	-0.055733904
2	0x3d90facc	0.07079086
3	0x3d983bee	0.07433306
4	0x3d3db012	0.04631049
5	0xbd5149cc	-0.05109577
6	0xbd6efb8d	-0.058345366
7	0xbcedb3c0	-0.029016376
8	0x3d91c186	0.0711699
9	0x3c81c33d	0.015840167
